tests/Xaccelerometer_geometric/models/weights_NN_oo3.npy (npy, 31928 bytes, 1 tensors)

array f4 [53, 150]
000000 00 48 8c be 69 e2 8c be 41 0e 8f be f2 9f 8e be
       -0.27398682 -0.27516487 -0.27940562 -0.27856404
000010 ac e9 8c be f2 e6 8e be f2 f6 93 be 61 10 92 be
       -0.27522027 -0.27910572 -0.28899342 -0.2852812
000020 60 16 99 be ac 4f ac be b0 e7 ab be 9f 03 bb be
       -0.29899883 -0.33654535 -0.335752 -0.365262
000030 bf 3d d9 be 9e 87 dd be 09 8d e7 be f1 e9 f5 be
       -0.4242992 -0.4326753 -0.4522479 -0.48030046
000040 73 1e 00 bf 3f 6b f3 be 4f e2 bc be 30 94 d0 be
       -0.5004646 -0.4754276 -0.3689141 -0.40738058
000050 a4 50 a2 be 34 13 b9 bd 83 36 ee bd f5 16 0a bd
       -0.3170215 -0.09036866 -0.11631491 -0.0337133
000060 d6 ea eb 3d 65 e6 18 3e c6 f5 ff 3d 67 5f d4 bc
       0.11519401 0.14931639 0.124980494 -0.025924398
000070 d3 e6 9f 3d 61 f9 97 3a c6 e3 72 be 16 ad 03 be
       0.07807698 0.0011594706 -0.23719701 -0.12858996
000080 64 cd a2 bd d5 e0 d1 bc c3 bb c0 3b 07 f9 01 3e
       -0.079493314 -0.025619904 0.005881758 0.12692653
000090 93 8b b0 3e c0 ca 94 3e 1d 88 a5 3e 69 c5 da 3e
       0.34481487 0.29060936 0.3233041 0.42728737
0000a0 f3 82 a7 3e ef 02 7f 3e e9 63 30 3e 6f db 7a 3d
       0.32717094 0.24903463 0.17225613 0.061244424
0000b0 da 8c 9f bd 49 88 7e be 31 de a8 be 00 ea ef be
       -0.07790537 -0.24856676 -0.3298202 -0.46858215
0000c0 aa 09 2b bf d3 bf 30 bf 98 10 4a bf f9 d5 71 bf
       -0.6681162 -0.690427 -0.7893157 -0.9446712
0000d0 6f 90 6c bf f5 07 74 bf 2a 7f 81 bf b4 ba 7c bf
       -0.9240789 -0.9532464 -1.0116932 -0.98722386
0000e0 06 d5 72 bf 66 e5 5b bf 7a 5a 5b bf 75 40 3e bf
       -0.948563 -0.8589691 -0.8568493 -0.74317104
0000f0 7d 99 fe be a2 c8 01 bf 65 59 c0 be 83 a2 05 be
       -0.49726477 -0.50696766 -0.37568203 -0.13050275
000100 1e 20 da bd 0f 82 86 bd 1f 8a 99 bd 31 c2 a0 3c
       -0.10650657 -0.065677755 -0.07497048 0.019623848
000110 68 1d 2d bd 18 10 8f be f9 15 23 be 8b 4a 17 be
       -0.042264372 -0.27941966 -0.1592635 -0.1477453
000120 b1 45 3e be 70 e9 00 be ee a9 98 bb cd a0 56 3e
       -0.18581273 -0.1258905 -0.004658929 0.20959778
000130 e6 22 36 3e c2 34 7f 3e bf c1 d4 3e ed 4d a7 3e
       0.1778675 0.2492247 0.41554067 0.3267664
000140 c8 09 90 3e 7c 97 86 3e 75 f3 19 3e 11 d8 b0 3c
       0.28132463 0.26287448 0.15034278 0.021587403
000150 9d fc f5 bd 59 57 5f be d3 54 b6 be db f8 08 bf
       -0.12011073 -0.21810664 -0.3561159 -0.53504723
000160 e5 9c 17 bf 1e e1 2e bf 61 e0 4e bf 3c ef 49 bf
       -0.5922378 -0.6831225 -0.80811125 -0.7888067
000170 6e 31 4e bf b0 35 57 bf 4d 42 4a bf 7c ff 3e bf
       -0.80544174 -0.84066296 -0.79007417 -0.7460859
000180 89 e8 36 bf 65 bb 2a bf 7d 21 1c bf 0a 13 0f bf
       -0.7144857 -0.6669219 -0.609886 -0.55888426
000190 de 4c 04 bf 22 24 ee be 63 a9 d0 be 12 95 c5 be
       -0.5167979 -0.46511942 -0.40754232 -0.38590294
0001a0 4b d4 b4 be 05 b4 9e be 13 63 9d be 72 b7 96 be
       -0.35318217 -0.3099672 -0.3073965 -0.29436833
0001b0 e8 ca 89 be c8 02 8d be f3 4f 8d be 5f c7 87 be
       -0.26912618 -0.27541184 -0.2760006 -0.26519296
0001c0 bd 7a 8e be 57 f3 91 be fd 7c 91 be 53 ce 96 be
       -0.27828017 -0.28505966 -0.2841567 -0.29454288
0001d0 98 cd 98 be dd 14 99 be 4b 5e 9c be 0a f6 9f be
       -0.29844356 -0.2989873 -0.3054069 -0.312424
0001e0 9f ab 9e be 58 75 a2 be 75 b0 a0 be 42 e3 a0 be
       -0.30990312 -0.3173015 -0.31384626 -0.31423384
0001f0 e3 03 a0 be ad 55 9f be 99 dc 9d be 83 d9 9e be
       -0.31252965 -0.31120053 -0.30832365 -0.31025323
000200 55 a5 99 be 94 76 9a be 9c e4 96 be 71 a8 95 be
       -0.3000895 -0.30168593 -0.2947129 -0.29230073
000210 08 60 95 be 98 c7 95 be a8 ed 93 be 40 61 91 be
       -0.2917483 -0.2925384 -0.28892255 -0.28394508
000220 10 91 92 be 5a 03 91 be 80 d5 91 be a9 44 90 be
       -0.286263 -0.2832287 -0.284832 -0.28177384
000230 5b d5 8f be 1a 15 90 be 53 60 8f be 26 54 8f be
       -0.28092465 -0.281411 -0.28003177 -0.27993888
000240 d2 5d 90 be 4d 48 8f be 74 c0 8e be a4 72 8f be
       -0.2819658 -0.2798485 -0.27881205 -0.2801715
000250 24 d8 8e be d0 b2 8e be d6 9b 1d 3f 73 7e 1d 3f
       -0.27899277 -0.27870798 0.6156591 0.6152107
000260 0a 10 1d 3f 8d 25 1d 3f c6 f5 1d 3f bb fe 1d 3f
       0.613526 0.6138542 0.61703146 0.6171681
000270 16 31 1e 3f bf 83 1e 3f 1a 49 1f 3f 26 31 21 3f
       0.6179365 0.6191978 0.6222092 0.6296562
000280 4c e3 20 3f c6 43 23 3f fd b9 28 3f 9f c4 27 3f
       0.6284683 0.6377529 0.65908796 0.65534395
000290 fa 28 2b 3f a4 82 30 3f 10 1e 31 3f 9a 65 32 3f
       0.668594 0.6894934 0.69186497 0.6968628
0002a0 af 4f 33 3f 0f a5 36 3f 01 cd 36 3f 98 c6 32 3f
       0.7004346 0.7134561 0.7140656 0.6983428
0002b0 9f 6d 3a 3f 02 a6 3e 3f 97 24 40 3f aa 91 49 3f
       0.7282352 0.7447206 0.7505583 0.7873789
0002c0 87 7b 54 3f 7a a0 61 3f 77 34 69 3f 8c ac 73 3f
       0.8300099 0.8813549 0.9109568 0.9518516
0002d0 1f 1b 80 3f c4 5f 81 3f ba 57 83 3f b8 64 86 3f
       1.0008277 1.010735 1.0261147 1.0499487
0002e0 d1 cb 83 3f bb bd 81 3f 21 9f 7f 3f da eb 73 3f
       1.0296575 1.0136026 0.99852186 0.95281756
0002f0 5f 78 68 3f 60 ca 5d 3f db a7 4e 3f 98 fa 3e 3f
       0.9080867 0.86636925 0.8072488 0.74601126
000300 86 59 2d 3f d0 a1 1f 3f 02 07 0f 3f fa ef f8 3e
       0.67714727 0.6235628 0.5587007 0.48620588
000310 73 de e9 3e 67 c1 d4 3e 2c ec ba 3e c8 5f bc 3e
       0.45677528 0.41553804 0.3650831 0.36791825
000320 64 12 ba 3e 28 c7 bb 3e 64 a0 c5 3e 58 47 d5 3e
       0.36342156 0.36675382 0.3859893 0.41655993
000330 cc 90 ec 3e 8d ae fa 3e 45 10 06 3f d3 9a 10 3f
       0.4620422 0.48961297 0.52368575 0.56486243
000340 cf f4 18 3f a6 05 1f 3f 78 0f 22 3f 1d c0 2b 3f
       0.5974855 0.62117994 0.63304853 0.67090017
000350 69 f3 31 3f 54 20 35 3f c8 90 3e 3f af ca 48 3f
       0.6951204 0.70752454 0.7443967 0.7843427
000360 e6 d3 55 3f 59 36 5d 3f 9f a0 69 3f 75 98 78 3f
       0.83526456 0.8641105 0.91260713 0.9710763
000370 c6 14 7b 3f 25 9e 80 3f 7e 6f 85 3f 99 46 83 3f
       0.9807857 1.0048262 1.042465 1.025592
000380 e7 19 82 3f 51 e9 81 3f 17 e5 78 3f 29 0c 6f 3f
       1.0164155 1.0149328 0.97224563 0.9337793
000390 95 85 66 3f ec 17 58 3f b9 0a 49 3f 4e d3 39 3f
       0.9004758 0.844115 0.78531986 0.7258805
0003a0 7d 4d 2b 3f f0 72 19 3f 7d 93 07 3f 03 56 fb 3e
       0.6691511 0.59941006 0.52959424 0.4908906
0003b0 34 83 e0 3e 25 4d bf 3e f7 c9 b8 3e 9d d6 ad 3e
       0.438501 0.37363544 0.36091587 0.339528
0003c0 53 8f 9e 3e 6f b3 a9 3e 1e 33 af 3e 5a 08 b3 3e
       0.30968723 0.3314471 0.34218687 0.3496731
0003d0 a6 47 c2 3e a2 2a d2 3e 5d 2a df 3e b5 07 ec 3e
       0.37945288 0.4104815 0.43587008 0.4609963
0003e0 17 cb fa 3e fa 8c 04 3f d7 73 08 3f 7b f6 0d 3f
       0.4898307 0.51777613 0.5330176 0.55454224
0003f0 d7 7c 14 3f c2 b8 15 3f 6a be 18 3f e1 e0 1c 3f
       0.5800299 0.58485043 0.5966555 0.6128064
