tests/Xaccelerometer_geometric/models/weights_NN_oo3.npy (npy, 31928 bytes, 1 tensors)

array f4 [53, 150]
0	0xbe68e9c3	-0.22745423
1	0xbe68b401	-0.22724916
2	0xbe6b4149	-0.22974123
3	0xbe703d5c	-0.23460907
4	0xbe6bdf59	-0.23034419
5	0xbe6ddace	-0.23227999
6	0xbe71fe85	-0.23632248
7	0xbe72e499	-0.23720016
8	0xbe81dc1c	-0.25363243
9	0xbe93c9ef	-0.28865
10	0xbe923317	-0.28554603
11	0xbea39d67	-0.31956026
12	0xbec52e95	-0.38512102
13	0xbec82ec0	-0.39098167
14	0xbed53272	-0.4164005
15	0xbee3c28f	-0.44484374
16	0xbeed34f1	-0.46329454
17	0xbeddb698	-0.4330337
18	0xbea9a078	-0.3313024
19	0xbebc1db7	-0.3674142
20	0xbe8a213e	-0.26978487
21	0xbd24f49b	-0.040272336
22	0xbd868d53	-0.06569924
23	0x3c797711	0.015226142
24	0x3e2cf7bc	0.16891378
25	0x3e4a4c0b	0.1975557
26	0x3e3073a0	0.17231607
27	0x3ca405e6	0.020022344
28	0x3df4fdda	0.11962481
29	0x3d14c793	0.03632314
30	0xbe56d7c4	-0.20980746
31	0xbdd4f4fc	-0.103982896
32	0xbd73be6d	-0.059507776
33	0xbc558220	-0.0130315125
34	0x3c9f300e	0.019432094
35	0x3e0dcad3	0.13846903
36	0x3eb62c15	0.35580507
37	0x3e9ef8fc	0.31049335
38	0x3eb266a5	0.34843937
39	0x3ee886cb	0.4541534
40	0x3ebbc205	0.36671463
41	0x3e975dfc	0.29563892
42	0x3e702218	0.23450506
43	0x3e0651ee	0.13117191
44	0x3b6c7524	0.0036080563
45	0xbe201434	-0.15632707
46	0xbe799529	-0.24373306
47	0xbebef779	-0.37298182
48	0xbf0fe616	-0.5621046
49	0xbf167437	-0.5877108
50	0xbf2f0dd5	-0.6838048
51	0xbf564358	-0.8369651
52	0xbf54b778	-0.8309245
53	0xbf5c21ae	-0.8598889
54	0xbf6ee8e7	-0.9332413
55	0xbf69dd28	-0.9135308
56	0xbf61672b	-0.88048047
57	0xbf4bf642	-0.79672635
58	0xbf4cfccc	-0.8007324
59	0xbf32505d	-0.69653875
60	0xbee7f611	-0.4530492
61	0xbeef4268	-0.4673035
62	0xbeacd73b	-0.33757958
63	0xbdc4aad1	-0.09602893
64	0xbd90f52d	-0.070780136
65	0xbd05d33f	-0.032672163
66	0xbd223d0f	-0.03960901
67	0x3d435fc7	0.047698762
68	0xbc971dc8	-0.018446818
69	0xbe869001	-0.2628174
70	0xbe111344	-0.14167506
71	0xbe0be351	-0.13660933
72	0xbe385d1e	-0.18004271
73	0xbdf303ec	-0.118659824
74	0x39f2f2b4	0.00046338665
75	0x3e581765	0.21102674
76	0x3e3f3662	0.18673089
77	0x3e8705db	0.26371655
78	0x3edd1935	0.43183294
79	0x3eb410d9	0.35169104
80	0x3ea346c5	0.3188993
81	0x3e9f99bb	0.31171975
82	0x3e4e81f8	0.20166767
83	0x3db9678f	0.09052955
84	0xbd2898be	-0.04116129
85	0xbe0e2e06	-0.13884744
86	0xbe87ba5a	-0.26509362
87	0xbede1bdf	-0.4338064
88	0xbef9b7b5	-0.4877297
89	0xbf126132	-0.5717956
90	0xbf333377	-0.70000404
91	0xbf2f37f6	-0.68444765
92	0xbf33bf54	-0.7021382
93	0xbf3f6096	-0.74756753
94	0xbf331308	-0.69950914
95	0xbf2c1b6a	-0.6722933
96	0xbf283dea	-0.65719473
97	0xbf1ae7df	-0.6051006
98	0xbf0e3843	-0.555546
99	0xbf02c459	-0.5108085
100	0xbef2b956	-0.47407025
101	0xbedb165e	-0.42790502
102	0xbebff3cb	-0.37490687
103	0xbeb5dee0	-0.35521603
104	0xbea57bf2	-0.32321125
105	0xbe8e6bd4	-0.2781664
106	0xbe8e95dd	-0.27848712
107	0xbe86b035	-0.2630631
108	0xbe763af3	-0.24045925
109	0xbe7d6b5c	-0.24747986
110	0xbe784191	-0.24243762
111	0xbe6b1725	-0.22958048
112	0xbe772498	-0.24135053
113	0xbe7e2ea2	-0.24822477
114	0xbe783387	-0.24238406
115	0xbe8152f9	-0.25258616
116	0xbe832d73	-0.25620613
117	0xbe823c84	-0.25436795
118	0xbe878439	-0.26468065
119	0xbe86cb0c	-0.26326787
120	0xbe8809cc	-0.26569974
121	0xbe8803e8	-0.2656548
122	0xbe878de8	-0.26475453
123	0xbe8a4141	-0.2700291
124	0xbe8959ee	-0.26826423
125	0xbe87ed7e	-0.2654838
126	0xbe841ed4	-0.2580477
127	0xbe83b05f	-0.25720498
128	0xbe83928d	-0.25697747
129	0xbe816891	-0.2527509
130	0xbe818b03	-0.2530137
131	0xbe7ae0a8	-0.24499762
132	0xbe7c3cf5	-0.24632628
133	0xbe7a12e4	-0.24421269
134	0xbe79f79b	-0.2441086
135	0xbe7547bb	-0.23953144
136	0xbe740d07	-0.23833095
137	0xbe711d8f	-0.23546432
138	0xbe72ec40	-0.23722935
139	0xbe70b52f	-0.23506616
140	0xbe6d5790	-0.23177934
141	0xbe6f9733	-0.23397522
142	0xbe6c788d	-0.23092861
143	0xbe6c6fc4	-0.2308951
144	0xbe6cd92e	-0.23129722
145	0xbe6ce717	-0.23135029
146	0xbe6c125e	-0.23053882
147	0xbe692821	-0.22769214
148	0xbe69b24d	-0.22821923
149	0xbe6c1a83	-0.23056988
150	0x3f24a6ca	0.64317
151	0x3f24bbce	0.6434907
152	0x3f248652	0.64267457
153	0x3f23f99d	0.64052755
154	0x3f24c6c7	0.6436581
155	0x3f24f6ca	0.6443907
156	0x3f263e81	0.64939123
157	0x3f25a993	0.64711875
158	0x3f261b7d	0.64885694
159	0x3f27d73e	0.6556281
160	0x3f2802bf	0.6562919
161	0x3f295c93	0.6615688
162	0x3f2d79c8	0.6776395
163	0x3f2d0e87	0.6760029
164	0x3f2f376a	0.6844393
165	0x3f344ec8	0.7043271
166	0x3f350b35	0.70720226
167	0x3f36fa96	0.71476114
168	0x3f37f7ef	0.7186269
169	0x3f3b48ec	0.73158145
170	0x3f3d1605	0.73861724
171	0x3f3bb48b	0.7332236
172	0x3f428167	0.759787
173	0x3f47658e	0.77889335
174	0x3f4bbd73	0.7958595
175	0x3f53c0f7	0.82716316
176	0x3f5ddd30	0.8666563
177	0x3f683dc2	0.90719235
178	0x3f703b81	0.93840796
179	0x3f782cf8	0.96943617
180	0x3f805429	1.0025684
181	0x3f81ad69	1.0131046
182	0x3f835ac7	1.0262078
183	0x3f85edf6	1.0463245
184	0x3f835cb1	1.0262662
185	0x3f81be36	1.0136173
186	0x3f8081e7	1.0039643
187	0x3f764ed8	0.96214056
188	0x3f6c4795	0.92296726
189	0x3f63240d	0.88726884
190	0x3f55aaeb	0.83463925
191	0x3f4747f2	0.77844155
192	0x3f385419	0.7200332
193	0x3f2bce8d	0.67112046
194	0x3f1c8c3e	0.6115149
195	0x3f0b4e13	0.54416007
196	0x3f02b1bf	0.5105247
197	0x3ef1d7a8	0.47234845
198	0x3ed919ac	0.424024
199	0x3ed912f4	0.42397273
200	0x3ed60807	0.41803
201	0x3ed59d90	0.41721773
202	0x3edc3abc	0.4301356
203	0x3eeabec7	0.45848677
204	0x3efbc49e	0.49173445
205	0x3f0412fd	0.51591474
206	0x3f0c3e51	0.5478259
207	0x3f15ce76	0.5851816
208	0x3f1d2822	0.6138936
209	0x3f22e43a	0.63629496
210	0x3f26e477	0.6519236
211	0x3f2f7377	0.6853556
212	0x3f363461	0.71173674
213	0x3f3b02a0	0.7305088
214	0x3f44897f	0.767723
215	0x3f4e989f	0.8070163
216	0x3f5b8693	0.8575222
217	0x3f62a98c	0.8853996
218	0x3f6c468a	0.92295134
219	0x3f77b7ea	0.96765006
220	0x3f7ae50e	0.9800576
221	0x3f7feee6	0.99973905
222	0x3f83f101	1.0307924
223	0x3f822b77	1.0169514
224	0x3f813c69	1.0096561
225	0x3f815856	1.0105083
226	0x3f791c2e	0.97308624
227	0x3f70ce35	0.94064647
228	0x3f6a2231	0.9145842
229	0x3f5ce366	0.8628448
230	0x3f4fddf1	0.8119803
231	0x3f42f9e0	0.7616253
232	0x3f346d24	0.70479035
233	0x3f25aeda	0.6471993
234	0x3f14cfb3	0.58129424
235	0x3f0a85f8	0.5411067
236	0x3efd4ad0	0.4947114
237	0x3eddfed9	0.43358496
238	0x3ed7a28f	0.4211621
239	0x3ecd8921	0.40143684
240	0x3ebb3c2a	0.3656934
241	0x3ec58d2c	0.38584268
242	0x3ecaa8f6	0.39582032
243	0x3ecb219b	0.39674076
244	0x3ed9677c	0.42461765
245	0x3ee56ae4	0.44808114
246	0x3eefd04c	0.46838605
247	0x3efc0b16	0.49227208
248	0x3f048e44	0.5177958
249	0x3f0af119	0.54274136
250	0x3f0e6e37	0.55636925
251	0x3f13927a	0.5764538
252	0x3f197d6b	0.59957
253	0x3f1ada10	0.60488987
254	0x3f1dc1f7	0.6162409
255	0x3f2242d2	0.6338321
