tests/Xaccelerometer_geometric/models/weights_NN_oo32.npy (npy, 31928 bytes, 1 tensors)

array f4 [53, 150]
0	0xbea16814	-0.31524718
1	0xbe9ed8af	-0.3102469
2	0xbea1198c	-0.31464803
3	0xbea2586a	-0.3170808
4	0xbea3828e	-0.31935543
5	0xbea27bc0	-0.3173504
6	0xbea71e0a	-0.32640105
7	0xbea5d762	-0.32390887
8	0xbeac5cb5	-0.3366448
9	0xbec06c6b	-0.37582716
10	0xbebd4a06	-0.36970538
11	0xbecdb823	-0.40179548
12	0xbeec024d	-0.46095505
13	0xbeeeba09	-0.4662631
14	0xbefc2031	-0.4924331
15	0xbf029709	-0.5101171
16	0xbf096e09	-0.53683525
17	0xbf023f3c	-0.5087774
18	0xbece14ef	-0.40250346
19	0xbee10baa	-0.4395421
20	0xbeb27462	-0.34854418
21	0xbdfec97b	-0.12440773
22	0xbe14361b	-0.14473765
23	0xbd7c541f	-0.06160366
24	0x3db779e8	0.08958799
25	0x3e025da7	0.12731038
26	0x3dde199a	0.10844727
27	0xbd058ee6	-0.03260698
28	0x3d925b5e	0.07146333
29	0x3b46a11e	0.0030308436
30	0xbe6ea02b	-0.23303287
31	0xbe004754	-0.1252721
32	0xbd98aada	-0.07454462
33	0xbc9e548a	-0.01932742
34	0x3c1aea2a	0.009455243
35	0x3e0172e1	0.12641479
36	0x3eb0fc1f	0.34567353
37	0x3e92acac	0.28647363
38	0x3ea06c0d	0.31332436
39	0x3ed2dc3d	0.41183653
40	0x3e9c2e9f	0.3050432
41	0x3e56b4f6	0.20967469
42	0x3e0d3170	0.1378839
43	0x3cda945a	0.026682068
44	0xbdfe3396	-0.12412183
45	0xbe929209	-0.2862704
46	0xbebeb1b0	-0.3724494
47	0xbf040022	-0.515627
48	0xbf346ada	-0.7047554
49	0xbf3cf4ba	-0.73810923
50	0xbf53e0ed	-0.82765085
51	0xbf7ba7f7	-0.9830317
52	0xbf749874	-0.95545125
53	0xbf7c5612	-0.9856883
54	0xbf86c7d4	-1.0529733
55	0xbf83071a	-1.0236542
56	0xbf7b2c8f	-0.98114866
57	0xbf640567	-0.89070743
58	0xbf6382fc	-0.8887174
59	0xbf44170a	-0.76597655
60	0xbf05e14b	-0.52296895
61	0xbf089149	-0.5334669
62	0xbecbf0fb	-0.3983229
63	0xbe17600e	-0.14782736
64	0xbdf2c712	-0.11854376
65	0xbd9abb4c	-0.07555255
66	0xbda72da2	-0.08163001
67	0x3c899127	0.016792847
68	0xbd213bbf	-0.03936362
69	0xbe8c8d68	-0.27451634
70	0xbe1c68af	-0.15274309
71	0xbe11a95a	-0.14224759
72	0xbe37f478	-0.17964351
73	0xbdf84b80	-0.121237755
74	0xbabac4d9	-0.0014249339
75	0x3e5a3afd	0.21311565
76	0x3e337b54	0.17527515
77	0x3e78bf6d	0.24291773
78	0x3ecfcc2b	0.40585455
79	0x3e9de4be	0.3083858
80	0x3e84847a	0.25882322
81	0x3e6e6fa2	0.23284772
82	0x3dea0b22	0.11427905
83	0xbc3f142e	-0.011662526
84	0xbe2a2e19	-0.16619147
85	0xbe8508c6	-0.25983256
86	0xbecd118a	-0.40052444
87	0xbf150971	-0.5821753
88	0xbf220dad	-0.6330212
89	0xbf3939b1	-0.72353655
90	0xbf5a6841	-0.8531533
91	0xbf558a59	-0.83414227
92	0xbf57b60e	-0.8426217
93	0xbf61dffd	-0.88232404
94	0xbf54497a	-0.82924616
95	0xbf44e87d	-0.7691725
96	0xbf40f3e4	-0.7537215
97	0xbf308ae8	-0.68961954
98	0xbf22122c	-0.6330898
99	0xbf131484	-0.5745318
100	0xbf080643	-0.53134555
101	0xbefa0b76	-0.4883687
102	0xbee039dd	-0.43794146
103	0xbed5f9b9	-0.41792086
104	0xbec5036a	-0.38479167
105	0xbead897d	-0.33893958
106	0xbeae714e	-0.3407082
107	0xbea7c485	-0.3276712
108	0xbe9a6290	-0.30153322
109	0xbe9f4b0c	-0.31111944
110	0xbea2552e	-0.31705612
111	0xbe9b746e	-0.30362266
112	0xbea150a9	-0.3150685
113	0xbea6ab95	-0.32552782
114	0xbea70363	-0.3261977
115	0xbeaf4184	-0.34229672
116	0xbeae7a3d	-0.34077635
117	0xbeafcf3e	-0.343378
118	0xbeb3fe01	-0.35154727
119	0xbeb7f903	-0.35932168
120	0xbeb533a3	-0.35390958
121	0xbeb46a12	-0.35237175
122	0xbeb9f005	-0.36315933
123	0xbeb690d5	-0.35657373
124	0xbeb5f2bd	-0.35536757
125	0xbeb62335	-0.35573736
126	0xbeb2f50f	-0.3495259
127	0xbeb0e02d	-0.34546033
128	0xbeade75e	-0.33965582
129	0xbeabe4df	-0.33573052
130	0xbead560c	-0.3385471
131	0xbea97c10	-0.33102465
132	0xbea88e2f	-0.32920977
133	0xbea82a6a	-0.3284486
134	0xbea638be	-0.32465166
135	0xbea7e098	-0.3278854
136	0xbea4fb15	-0.3222281
137	0xbea4eb5c	-0.32210815
138	0xbea486ef	-0.32134196
139	0xbea2ecd9	-0.31821325
140	0xbea43acc	-0.32076108
141	0xbea15039	-0.31506518
142	0xbea307f6	-0.3184201
143	0xbea26d9d	-0.31724253
144	0xbea22ae7	-0.31673357
145	0xbea27271	-0.31727937
146	0xbea2be48	-0.31785798
147	0xbea27cbd	-0.31735793
148	0xbea34618	-0.31889415
149	0xbea324c3	-0.31863984
150	0x3f1423c3	0.5786707
151	0x3f158abf	0.58414835
152	0x3f14a336	0.5806154
153	0x3f142999	0.57875973
154	0x3f141223	0.57840174
155	0x3f15488e	0.58313835
156	0x3f15c060	0.58496666
157	0x3f15721d	0.5837725
158	0x3f16cd6d	0.58907205
159	0x3f1866b7	0.5953173
160	0x3f18fa17	0.59756607
161	0x3f1b6fe2	0.60717595
162	0x3f2144a7	0.6299538
163	0x3f20d9ee	0.62832534
164	0x3f232b3b	0.6373784
165	0x3f2ad021	0.6672383
166	0x3f2a3bb9	0.6649738
167	0x3f2bdbaf	0.67132086
168	0x3f2c9702	0.6741792
169	0x3f3056d7	0.6888251
170	0x3f2ff04d	0.68726045
171	0x3f2944f3	0.66120833
172	0x3f31e094	0.69483304
173	0x3f353a85	0.7079242
174	0x3f35c507	0.71003765
175	0x3f3f24b0	0.74665356
176	0x3f4adb79	0.7924114
177	0x3f59d39d	0.8508852
178	0x3f61ad14	0.8815472
179	0x3f6e6d89	0.9313589
180	0x3f7cf63d	0.9881323
181	0x3f7edfbd	0.9956015
182	0x3f8198d4	1.0124764
183	0x3f8476f3	1.03488
184	0x3f8190e4	1.0122342
185	0x3f7dcb44	0.99138284
186	0x3f78c006	0.97168005
187	0x3f6ce562	0.9253751
188	0x3f606091	0.8764735
189	0x3f531f9f	0.82470125
190	0x3f43d3ac	0.7649486
191	0x3f3048a3	0.68860835
192	0x3f21e384	0.63237786
193	0x3f14e314	0.58158994
194	0x3f024332	0.5088378
195	0x3ee552e4	0.44789803
196	0x3ed5e7d4	0.41778433
197	0x3ebff45a	0.37491113
198	0x3eac14e7	0.33609697
199	0x3eaa2aa2	0.3323565
200	0x3eab2bb5	0.33431783
201	0x3eaef900	0.34174347
202	0x3eba87ba	0.36431676
203	0x3ecb390e	0.39691967
204	0x3ee18fdf	0.44055077
205	0x3ef0125c	0.46889007
206	0x3f01b376	0.5066446
207	0x3f0c135a	0.5471703
208	0x3f14a512	0.5806438
209	0x3f1b96e4	0.60777116
210	0x3f1cf26e	0.6130742
211	0x3f26566d	0.64975625
212	0x3f2c3238	0.6726413
213	0x3f2dfc5b	0.6796319
214	0x3f37f62a	0.7185999
215	0x3f4245a5	0.7588752
216	0x3f4fa390	0.8110895
217	0x3f570a11	0.83999735
218	0x3f64c01c	0.89355636
219	0x3f758667	0.95908207
220	0x3f7804ad	0.96882135
221	0x3f7de16d	0.991721
222	0x3f839547	1.0279931
223	0x3f815139	1.0102912
224	0x3f8002dc	1.0000873
225	0x3f7e0a8a	0.9923483
226	0x3f7303a6	0.9492744
227	0x3f6844c6	0.9072994
228	0x3f5d1697	0.86362594
229	0x3f4e8d36	0.8068422
230	0x3f3f48ba	0.74720347
231	0x3f2e2b52	0.6803485
232	0x3f1f4da7	0.62227863
233	0x3f0f58d3	0.5599491
234	0x3ef74a32	0.48298794
235	0x3ee61607	0.4493868
236	0x3ecbc3fd	0.39797965
237	0x3eabecd6	0.3357913
238	0x3ea77219	0.32704237
239	0x3e9debc1	0.30843928
240	0x3e8e7b42	0.27828413
241	0x3e995d47	0.29953977
242	0x3ea13726	0.31487387
243	0x3ea4cf42	0.32189375
244	0x3eb3dd93	0.35129985
245	0x3ec58682	0.38579184
246	0x3ed69209	0.4190829
247	0x3ee3bdb1	0.4448066
248	0x3ef2e808	0.4744265
249	0x3f01e235	0.5073579
250	0x3f0374fb	0.51350373
251	0x3f068f9f	0.525629
252	0x3f0d746c	0.5525577
253	0x3f0e7b2c	0.55656695
254	0x3f112c3c	0.5670812
255	0x3f159ac9	0.5843931
